…
/usr/local/lib/python3.10/dist-packages/torch/utils/data/dataloader.py:617: UserWarning: This DataLoader will create 4 worker processes in total. Our suggested max number of worker in current system is 2, which is smaller than what this DataLoader is going to create. Please be aware that excessive worker creation might get DataLoader running slow or even freeze, lower the worker number to avoid potential slowness/freeze if necessary.
  warnings.warn(
Requirement already satisfied: torchsummary in /usr/local/lib/python3.10/dist-packages (1.5.1)
cuda
----------------------------------------------------------------
        Layer (type)               Output Shape         Param #
================================================================
            Conv2d-1            [-1, 8, 26, 26]              72
              ReLU-2            [-1, 8, 26, 26]               0
            Conv2d-3           [-1, 16, 24, 24]           1,152
              ReLU-4           [-1, 16, 24, 24]               0
            Conv2d-5           [-1, 10, 24, 24]             160
         MaxPool2d-6           [-1, 10, 12, 12]               0
            Conv2d-7           [-1, 10, 10, 10]             900
              ReLU-8           [-1, 10, 10, 10]               0
            Conv2d-9             [-1, 16, 8, 8]           1,440
             ReLU-10             [-1, 16, 8, 8]               0
           Conv2d-11             [-1, 16, 6, 6]           2,304
             ReLU-12             [-1, 16, 6, 6]               0
           Conv2d-13             [-1, 10, 6, 6]           1,440
             ReLU-14             [-1, 10, 6, 6]               0
           Conv2d-15             [-1, 10, 1, 1]           3,600
================================================================
Total params: 11,068
Trainable params: 11,068
Non-trainable params: 0
----------------------------------------------------------------
Input size (MB): 0.00
Forward/backward pass size (MB): 0.32
Params size (MB): 0.04
Estimated Total Size (MB): 0.37
----------------------------------------------------------------
EPOCH: 0
Loss=0.19917063415050507 Batch_id=468 Accuracy=62.55: 100%|██████████| 469/469 [00:17<00:00, 26.93it/s]
…
