model1.log

CUDA Available? True
Requirement already satisfied: torchsummary in /usr/local/lib/python3.10/dist-packages (1.5.1)
cuda
----------------------------------------------------------------
        Layer (type)               Output Shape         Param #
================================================================
            Conv2d-1           [-1, 16, 26, 26]             144
              ReLU-2           [-1, 16, 26, 26]               0
            Conv2d-3           [-1, 32, 24, 24]           4,608
              ReLU-4           [-1, 32, 24, 24]               0
            Conv2d-5           [-1, 64, 22, 22]          18,432
              ReLU-6           [-1, 64, 22, 22]               0
            Conv2d-7           [-1, 16, 22, 22]           1,024
         MaxPool2d-8           [-1, 16, 11, 11]               0
            Conv2d-9             [-1, 32, 9, 9]           4,608
             ReLU-10             [-1, 32, 9, 9]               0
           Conv2d-11             [-1, 64, 7, 7]          18,432
             ReLU-12             [-1, 64, 7, 7]               0
           Conv2d-13            [-1, 128, 5, 5]          73,728
             ReLU-14            [-1, 128, 5, 5]               0
           Conv2d-15             [-1, 10, 5, 5]          11,520
             ReLU-16             [-1, 10, 5, 5]               0
           Conv2d-17             [-1, 10, 1, 1]           2,500
================================================================
Total params: 134,996
Trainable params: 134,996
Non-trainable params: 0
----------------------------------------------------------------
Input size (MB): 0.00
Forward/backward pass size (MB): 1.13
Params size (MB): 0.51
Estimated Total Size (MB): 1.65
----------------------------------------------------------------
EPOCH: 0
Loss=0.38356876373291016 Batch_id=468 Accuracy=30.63: 100%|██████████| 469/469 [00:18<00:00, 25.90it/s]
…
