model3.log

CUDA Available? True
Requirement already satisfied: torchsummary in /usr/local/lib/python3.10/dist-packages (1.5.1)
cuda
----------------------------------------------------------------
        Layer (type)               Output Shape         Param #
================================================================
            Conv2d-1            [-1, 8, 26, 26]              72
              ReLU-2            [-1, 8, 26, 26]               0
            Conv2d-3           [-1, 16, 24, 24]           1,152
              ReLU-4           [-1, 16, 24, 24]               0
            Conv2d-5           [-1, 10, 24, 24]             160
         MaxPool2d-6           [-1, 10, 12, 12]               0
            Conv2d-7           [-1, 10, 10, 10]             900
              ReLU-8           [-1, 10, 10, 10]               0
            Conv2d-9             [-1, 16, 8, 8]           1,440
             ReLU-10             [-1, 16, 8, 8]               0
           Conv2d-11             [-1, 16, 6, 6]           2,304
             ReLU-12             [-1, 16, 6, 6]               0
           Conv2d-13             [-1, 10, 6, 6]           1,440
        AvgPool2d-14             [-1, 10, 1, 1]               0
================================================================
Total params: 7,468
Trainable params: 7,468
Non-trainable params: 0
----------------------------------------------------------------
Input size (MB): 0.00
Forward/backward pass size (MB): 0.32
Params size (MB): 0.03
Estimated Total Size (MB): 0.35
----------------------------------------------------------------
EPOCH: 0
Loss=0.3064463138580322 Batch_id=468 Accuracy=33.76: 100%|██████████| 469/469 [00:17<00:00, 27.17it/s]
…
