…
/usr/local/lib/python3.10/dist-packages/torch/utils/data/dataloader.py:617: UserWarning: This DataLoader will create 4 worker processes in total. Our suggested max number of worker in current system is 2, which is smaller than what this DataLoader is going to create. Please be aware that excessive worker creation might get DataLoader running slow or even freeze, lower the worker number to avoid potential slowness/freeze if necessary.
  warnings.warn(
Requirement already satisfied: torchsummary in /usr/local/lib/python3.10/dist-packages (1.5.1)
cuda
----------------------------------------------------------------
        Layer (type)               Output Shape         Param #
================================================================
            Conv2d-1            [-1, 8, 26, 26]              72
              ReLU-2            [-1, 8, 26, 26]               0
       BatchNorm2d-3            [-1, 8, 26, 26]              16
           Dropout-4            [-1, 8, 26, 26]               0
            Conv2d-5           [-1, 16, 24, 24]           1,152
              ReLU-6           [-1, 16, 24, 24]               0
       BatchNorm2d-7           [-1, 16, 24, 24]              32
           Dropout-8           [-1, 16, 24, 24]               0
            Conv2d-9           [-1, 10, 24, 24]             160
        MaxPool2d-10           [-1, 10, 12, 12]               0
           Conv2d-11           [-1, 10, 10, 10]             900
             ReLU-12           [-1, 10, 10, 10]               0
      BatchNorm2d-13           [-1, 10, 10, 10]              20
          Dropout-14           [-1, 10, 10, 10]               0
           Conv2d-15             [-1, 16, 8, 8]           1,440
             ReLU-16             [-1, 16, 8, 8]               0
      BatchNorm2d-17             [-1, 16, 8, 8]              32
          Dropout-18             [-1, 16, 8, 8]               0
           Conv2d-19             [-1, 16, 6, 6]           2,304
             ReLU-20             [-1, 16, 6, 6]               0
      BatchNorm2d-21             [-1, 16, 6, 6]              32
          Dropout-22             [-1, 16, 6, 6]               0
           Conv2d-23             [-1, 10, 6, 6]           1,440
        AvgPool2d-24             [-1, 10, 1, 1]               0
================================================================
Total params: 7,600
Trainable params: 7,600
Non-trainable params: 0
----------------------------------------------------------------
Input size (MB): 0.00
Forward/backward pass size (MB): 0.58
Params size (MB): 0.03
Estimated Total Size (MB): 0.62
----------------------------------------------------------------
EPOCH: 0
Loss=0.1055198684334755 Batch_id=468 Accuracy=87.32: 100%|██████████| 469/469 [00:20<00:00, 22.58it/s]
…
