Modle7.log (AWS)

CUDA Available? True
Requirement already satisfied: torchsummary in /opt/conda/envs/pytorch/lib/python3.11/site-packages (1.5.1)
cuda
----------------------------------------------------------------
        Layer (type)               Output Shape         Param #
================================================================
            Conv2d-1            [-1, 8, 26, 26]              72
              ReLU-2            [-1, 8, 26, 26]               0
       BatchNorm2d-3            [-1, 8, 26, 26]              16
           Dropout-4            [-1, 8, 26, 26]               0
            Conv2d-5           [-1, 12, 24, 24]             864
              ReLU-6           [-1, 12, 24, 24]               0
       BatchNorm2d-7           [-1, 12, 24, 24]              24
           Dropout-8           [-1, 12, 24, 24]               0
            Conv2d-9           [-1, 10, 24, 24]             120
        MaxPool2d-10           [-1, 10, 12, 12]               0
           Conv2d-11           [-1, 10, 10, 10]             900
             ReLU-12           [-1, 10, 10, 10]               0
      BatchNorm2d-13           [-1, 10, 10, 10]              20
          Dropout-14           [-1, 10, 10, 10]               0
           Conv2d-15             [-1, 16, 8, 8]           1,440
             ReLU-16             [-1, 16, 8, 8]               0
      BatchNorm2d-17             [-1, 16, 8, 8]              32
          Dropout-18             [-1, 16, 8, 8]               0
           Conv2d-19             [-1, 16, 6, 6]           2,304
             ReLU-20             [-1, 16, 6, 6]               0
      BatchNorm2d-21             [-1, 16, 6, 6]              32
          Dropout-22             [-1, 16, 6, 6]               0
           Conv2d-23             [-1, 10, 6, 6]           1,440
        AvgPool2d-24             [-1, 10, 1, 1]               0
================================================================
Total params: 7,264
Trainable params: 7,264
Non-trainable params: 0
----------------------------------------------------------------
Input size (MB): 0.00
Forward/backward pass size (MB): 0.51
Params size (MB): 0.03
Estimated Total Size (MB): 0.54
----------------------------------------------------------------
EPOCH: 0
Loss=0.03403529152274132 Batch_id=468 Accuracy=90.71: 100%|██████████| 469/469 [00:05<00:00, 91.02it/s] 
…
